…
                3.5 0 1.41-.91 2.72-2 3.25V8.59c.58-.45 1-1.27 1-2.09C10 5.22 8.98 4 8 4H4c-.98 0-2 1.22-2 2.5S3
                  9 4 9zm9-3h-1v1h1c1 0 2 1.22 2 2.5S13.98 12 13 12H9c-.98 0-2-1.22-2-2.5 0-.83.42-1.64
                  1-2.09V6.25c-1.09.53-2 1.84-2 3.25C6 11.31 7.55 13 9 13h4c1.45 0 3-1.69 3-3.5S14.5 6 13 6z&quot;&gt;
                &lt;/path&gt;
                &lt;/svg&gt;&lt;/a&gt;&lt;/h3&gt;
&lt;div class=&quot;gatsby-highlight&quot; data-language=&quot;text&quot;&gt;&lt;pre class=&quot;language-text&quot;&gt;&lt;code class=&quot;language-text&quot;&gt;Generator(
  (main): Sequential(
    (0): ConvTranspose2d(100, 512, kernel_size=(4, 4), stride=(1, 1), bias=False)
    (1): BatchNorm2d(512, eps=1e-05, momentum=0.1, affine=True, track_running_stats=True)
    (2): ReLU(inplace=True)
    (3): ConvTranspose2d(512, 256, kernel_size=(4, 4), stride=(2, 2), padding=(1, 1), bias=False)
    (4): BatchNorm2d(256, eps=1e-05, momentum=0.1, affine=True, track_running_stats=True)
    (5): ReLU(inplace=True)
    (6): ConvTranspose2d(256, 128, kernel_size=(4, 4), stride=(2, 2), padding=(1, 1), bias=False)
    (7): BatchNorm2d(128, eps=1e-05, momentum=0.1, affine=True, track_running_stats=True)
    (8): ReLU(inplace=True)
    (9): ConvTranspose2d(128, 64, kernel_size=(4, 4), stride=(2, 2), padding=(1, 1), bias=False)
    (10): BatchNorm2d(64, eps=1e-05, momentum=0.1, affine=True, track_running_stats=True)
    (11): ReLU(inplace=True)
    (12): ConvTranspose2d(64, 3, kernel_size=(4, 4), stride=(2, 2), padding=(1, 1), bias=False)
    (13): Tanh()
  )
)&lt;/code&gt;&lt;/pre&gt;&lt;/div&gt;
&lt;h3 id=&quot;discriminator&quot; style=&quot;position:relative;&quot;&gt;Discriminator&lt;a href=&quot;#discriminator&quot; aria-label=&quot;discriminator permalink&quot; class=&quot;with-anchor after&quot;&gt;&lt;svg aria-hidden=&quot;true&quot; height=&quot;20&quot; version=&quot;1.1&quot; viewBox=&quot;0 0 16 16&quot; width=&quot;20&quot;&gt;
…
                3.5 0 1.41-.91 2.72-2 3.25V8.59c.58-.45 1-1.27 1-2.09C10 5.22 8.98 4 8 4H4c-.98 0-2 1.22-2 2.5S3
                  9 4 9zm9-3h-1v1h1c1 0 2 1.22 2 2.5S13.98 12 13 12H9c-.98 0-2-1.22-2-2.5 0-.83.42-1.64
                  1-2.09V6.25c-1.09.53-2 1.84-2 3.25C6 11.31 7.55 13 9 13h4c1.45 0 3-1.69 3-3.5S14.5 6 13 6z&quot;&gt;
                &lt;/path&gt;
                &lt;/svg&gt;&lt;/a&gt;&lt;/h3&gt;
&lt;div class=&quot;gatsby-highlight&quot; data-language=&quot;text&quot;&gt;&lt;pre class=&quot;language-text&quot;&gt;&lt;code class=&quot;language-text&quot;&gt;Discriminator(
  (main): Sequential(
    (0): Conv2d(3, 64, kernel_size=(4, 4), stride=(2, 2), padding=(1, 1), bias=False)
    (1): LeakyReLU(negative_slope=0.2, inplace=True)
    (2): Conv2d(64, 128, kernel_size=(4, 4), stride=(2, 2), padding=(1, 1), bias=False)
    (3): BatchNorm2d(128, eps=1e-05, momentum=0.1, affine=True, track_running_stats=True)
    (4): LeakyReLU(negative_slope=0.2, inplace=True)
    (5): Conv2d(128, 256, kernel_size=(4, 4), stride=(2, 2), padding=(1, 1), bias=False)
    (6): BatchNorm2d(256, eps=1e-05, momentum=0.1, affine=True, track_running_stats=True)
    (7): LeakyReLU(negative_slope=0.2, inplace=True)
    (8): Conv2d(256, 512, kernel_size=(4, 4), stride=(2, 2), padding=(1, 1), bias=False)
    (9): BatchNorm2d(512, eps=1e-05, momentum=0.1, affine=True, track_running_stats=True)
    (10): LeakyReLU(negative_slope=0.2, inplace=True)
    (11): Conv2d(512, 1, kernel_size=(4, 4), stride=(1, 1), bias=False)
    (12): Sigmoid()
  )
)&lt;/code&gt;&lt;/pre&gt;&lt;/div&gt;
&lt;h3 id=&quot;train&quot; style=&quot;position:relative;&quot;&gt;Train&lt;a href=&quot;#train&quot; aria-label=&quot;train permalink&quot; class=&quot;with-anchor after&quot;&gt;&lt;svg aria-hidden=&quot;true&quot; height=&quot;20&quot; version=&quot;1.1&quot; viewBox=&quot;0 0 16 16&quot; width=&quot;20&quot;&gt;
…
